…
Epoch 200/200
652/652 - 99s - loss: -5.6593e-01 - mean_squared_error: 0.4878 - mean_absolute_error: 0.6156 - mean_absolute_percentage_error: 34801736.0000 - cosine_similarity: 0.5659 - val_loss: -5.6265e-01 - val_mean_squared_error: 0.4913 - val_mean_absolute_error: 0.6181 - val_mean_absolute_percentage_error: 37695252.0000 - val_cosine_similarity: 0.5626
Model: "sequential"
_________________________________________________________________
Layer (type)                 Output Shape              Param #   
=================================================================
rescaling (Rescaling)        (None, 360, 640, 3)       0         
_________________________________________________________________
conv2d (Conv2D)              (None, 360, 640, 16)      448       
_________________________________________________________________
max_pooling2d (MaxPooling2D) (None, 180, 320, 16)      0         
_________________________________________________________________
conv2d_1 (Conv2D)            (None, 180, 320, 32)      4640      
_________________________________________________________________
max_pooling2d_1 (MaxPooling2 (None, 90, 160, 32)       0         
_________________________________________________________________
conv2d_2 (Conv2D)            (None, 90, 160, 64)       18496     
_________________________________________________________________
max_pooling2d_2 (MaxPooling2 (None, 45, 80, 64)        0         
_________________________________________________________________
dropout (Dropout)            (None, 45, 80, 64)        0         
_________________________________________________________________
flatten (Flatten)            (None, 230400)            0         
_________________________________________________________________
dense (Dense)                (None, 128)               29491328  
_________________________________________________________________
dense_1 (Dense)              (None, 2)                 258       
=================================================================
Total params: 29,515,170
Trainable params: 29,515,170
Non-trainable params: 0
_________________________________________________________________
