…
844/844 [==============================] - ETA: 0s - loss: 0.9833 - accuracy: 0.6981844/844 [==============================] - 181s 214ms/step - loss: 0.9833 - accuracy: 0.6981 - val_loss: 1.1399 - val_accuracy: 0.4841
Model: "sequential_1"
_________________________________________________________________
Layer (type)                 Output Shape              Param #   
=================================================================
sequential (Sequential)      (None, 360, 640, 3)       0         
_________________________________________________________________
rescaling (Rescaling)        (None, 360, 640, 3)       0         
_________________________________________________________________
conv2d (Conv2D)              (None, 360, 640, 16)      448       
_________________________________________________________________
max_pooling2d (MaxPooling2D) (None, 180, 320, 16)      0         
_________________________________________________________________
conv2d_1 (Conv2D)            (None, 180, 320, 32)      4640      
_________________________________________________________________
max_pooling2d_1 (MaxPooling2 (None, 90, 160, 32)       0         
_________________________________________________________________
conv2d_2 (Conv2D)            (None, 90, 160, 64)       18496     
_________________________________________________________________
max_pooling2d_2 (MaxPooling2 (None, 45, 80, 64)        0         
_________________________________________________________________
dropout (Dropout)            (None, 45, 80, 64)        0         
_________________________________________________________________
flatten (Flatten)            (None, 230400)            0         
_________________________________________________________________
dense (Dense)                (None, 128)               29491328  
_________________________________________________________________
dense_1 (Dense)              (None, 2)                 258       
=================================================================
Total params: 29,515,170
Trainable params: 29,515,170
Non-trainable params: 0
_________________________________________________________________
